…
preparing twitter2015 dataset...
loading word vectors...
building embedding_matrix: 100_twitter2015_embedding_matrix.dat
--------------./datasets/twitter2015/train.txt---------------
the number of problematic samples: 0
--------------./datasets/twitter2015/dev.txt---------------
the number of problematic samples: 0
--------------./datasets/twitter2015/test.txt---------------
the number of problematic samples: 0
building model
Before absa_dataset allocation:
Allocated: 230.28 MB
Cached:    244.00 MB
After model allocation:
Allocated: 239.79 MB
Cached:    268.00 MB
DataParallel(
  (module): MMFUSION(
    (embed): Embedding(12904, 100)
    (lstm_aspect): DynamicLSTM(
      (RNN): LSTM(100, 100, batch_first=True)
    )
    (lstm_l): DynamicLSTM(
      (RNN): LSTM(100, 100, batch_first=True)
    )
    (lstm_r): DynamicLSTM(
      (RNN): LSTM(100, 100, batch_first=True)
    )
    (attention_l): Attention2(
      (proj): Linear(in_features=100, out_features=100, bias=True)
      (dropout): Dropout(p=0.5, inplace=False)
    )
    (attention_r): Attention2(
      (proj): Linear(in_features=100, out_features=100, bias=True)
      (dropout): Dropout(p=0.5, inplace=False)
    )
    (visaspect_att_l): MMAttention(
      (proj): Linear(in_features=100, out_features=100, bias=True)
      (dropout): Dropout(p=0.5, inplace=False)
    )
    (visaspect_att_r): MMAttention(
      (proj): Linear(in_features=100, out_features=100, bias=True)
      (dropout): Dropout(p=0.5, inplace=False)
    )
    (ltext2hidden): Linear(in_features=100, out_features=100, bias=True)
    (laspect2hidden): Linear(in_features=100, out_features=100, bias=True)
    (rtext2hidden): Linear(in_features=100, out_features=100, bias=True)
    (raspect2hidden): Linear(in_features=100, out_features=100, bias=True)
    (dropout): Dropout(p=0.5, inplace=False)
    (aspect2text): Linear(in_features=100, out_features=100, bias=True)
    (vismap2text): Linear(in_features=2048, out_features=100, bias=True)
    (vis2text): Linear(in_features=2048, out_features=100, bias=True)
    (gate): Linear(in_features=2448, out_features=100, bias=True)
    (madality_attetion): Linear(in_features=100, out_features=1, bias=True)
    (text2hiddenvis): Linear(in_features=400, out_features=100, bias=True)
    (vis2hiddenvis): Linear(in_features=100, out_features=100, bias=True)
    (dense_6): Linear(in_features=600, out_features=3, bias=True)
  )
)
n_trainable_params: 1200104, n_nontrainable_params: 1290400
parameters only include text parts without word embeddings
>>>>>>>>>>>>>>>>>>>>>>>>>>>>>>>>>>>>>>>>>>>>>>>>>>>>>>>>>>>>>>>>>>>>>>>>>>>>>>>>>>>>>>>>>>>>>>>>>>>>
epoch:  0
>>>>>>>>>>>>>>>>>>>>>>>>>>>>>>>>>>>>>>>>>>>>>>>>>>>>>>>>>>>>>>>>>>>>>>>>>>>>>>>>>>>>>>>>>>>>>>>>>>>>
epoch:  1
loss: 0.7683, acc: 0.7068, dev_acc: 0.6551, test_acc: 0.6770
…
