…
Allocated: 0.00 MB
Cached:    0.00 MB
preparing twitter dataset...
loading word vectors...
building embedding_matrix: 100_twitter_embedding_matrix.dat
--------------./datasets/twitter/train.txt---------------
the number of problematic samples: 134
--------------./datasets/twitter/dev.txt---------------
the number of problematic samples: 29
--------------./datasets/twitter/test.txt---------------
the number of problematic samples: 62
building model
Before absa_dataset allocation:
Allocated: 230.28 MB
Cached:    244.00 MB
After model allocation:
Allocated: 238.11 MB
Cached:    268.00 MB
MMFUSION(
  (embed): Embedding(8490, 100)
  (lstm_aspect): DynamicLSTM(
    (RNN): LSTM(100, 100, batch_first=True)
  )
  (lstm_l): DynamicLSTM(
    (RNN): LSTM(100, 100, batch_first=True)
  )
  (lstm_r): DynamicLSTM(
    (RNN): LSTM(100, 100, batch_first=True)
  )
  (attention_l): Attention2(
    (proj): Linear(in_features=100, out_features=100, bias=True)
    (dropout): Dropout(p=0.5, inplace=False)
  )
  (attention_r): Attention2(
    (proj): Linear(in_features=100, out_features=100, bias=True)
    (dropout): Dropout(p=0.5, inplace=False)
  )
  (visaspect_att_l): MMAttention(
    (proj): Linear(in_features=100, out_features=100, bias=True)
    (dropout): Dropout(p=0.5, inplace=False)
  )
  (visaspect_att_r): MMAttention(
    (proj): Linear(in_features=100, out_features=100, bias=True)
    (dropout): Dropout(p=0.5, inplace=False)
  )
  (ltext2hidden): Linear(in_features=100, out_features=100, bias=True)
  (laspect2hidden): Linear(in_features=100, out_features=100, bias=True)
  (rtext2hidden): Linear(in_features=100, out_features=100, bias=True)
  (raspect2hidden): Linear(in_features=100, out_features=100, bias=True)
  (dropout): Dropout(p=0.5, inplace=False)
  (aspect2text): Linear(in_features=100, out_features=100, bias=True)
  (vismap2text): Linear(in_features=2048, out_features=100, bias=True)
  (vis2text): Linear(in_features=2048, out_features=100, bias=True)
  (gate): Linear(in_features=2448, out_features=100, bias=True)
  (madality_attetion): Linear(in_features=100, out_features=1, bias=True)
  (text2hiddenvis): Linear(in_features=400, out_features=100, bias=True)
  (vis2hiddenvis): Linear(in_features=100, out_features=100, bias=True)
  (dense_6): Linear(in_features=600, out_features=3, bias=True)
)
n_trainable_params: 1200104, n_nontrainable_params: 849000
parameters only include text parts without word embeddings
>>>>>>>>>>>>>>>>>>>>>>>>>>>>>>>>>>>>>>>>>>>>>>>>>>>>>>>>>>>>>>>>>>>>>>>>>>>>>>>>>>>>>>>>>>>>>>>>>>>>
epoch:  0
loss: 0.8588, acc: 0.6359, dev_acc: 0.6037, test_acc: 0.6135
dev_f1: 0.4491, test_f1: 0.4514
>>>>>>>>>>>>>>>>>>>>>>>>>>>>>>>>>>>>>>>>>>>>>>>>>>>>>>>>>>>>>>>>>>>>>>>>>>>>>>>>>>>>>>>>>>>>>>>>>>>>
…
